mpe_trained_model.pt (torch, 75775 bytes, 9 tensors)

network.0.weight f4 [64, 16]
000000 37 5f 24 bd 84 6f 54 bd 56 2f 48 3d d8 0b 23 3e
       -0.040129866 -0.051864162 0.048873268 0.15922487
000010 b2 65 23 3d 88 e1 d1 3d 8b 1a 19 be 92 20 ed bb
       0.039891906 0.10248095 -0.14951532 -0.0072365487
000020 ba 70 89 3c 8c 61 ef 3e 25 17 97 3e 0d e2 fb 3d
       0.016777385 0.4675411 0.29509845 0.12298975
000030 99 4f 15 be 09 0f 48 3e d2 7a 44 3e 44 d6 c9 3c
       -0.14581145 0.19536985 0.19187477 0.024638303
000040 f1 8b be 3d 40 85 30 be 77 fe 8c be 38 70 85 3c
       0.093040355 -0.17238331 -0.2753789 0.016288862
000050 ee 51 c5 3e e5 f7 84 3d f5 01 ea bd 8a e1 3c 3e
       0.3853907 0.06492595 -0.114261545 0.18445411
000060 21 69 0c bd 96 fc de 3c 1e 30 22 3e 9b 90 e3 3d
       -0.034279946 0.027220052 0.15838668 0.11111566
000070 f8 92 61 3e 53 c5 78 3e 60 e3 4a 3e aa a1 28 bd
       0.2202872 0.24294023 0.19813299 -0.0411698
000080 9d 8a 8f 3c ab b5 cf 3d 14 7c 9a be 88 81 8f be
       0.01752215 0.10142072 -0.3017279 -0.28028512
000090 7c e4 db bd 78 04 1b be 36 cb 80 bc e3 52 06 ba
       -0.10736939 -0.15138423 -0.015721899 -0.00051240454
0000a0 f9 8e 6d 3d d2 6a 05 be 80 dd c7 3d 22 f4 41 be
       0.057997677 -0.1302903 0.09759045 -0.18940786
0000b0 3e 93 27 3e 11 7c 45 be 07 84 c5 3c bc d9 33 be
       0.16364762 -0.19285609 0.024110807 -0.17563528
0000c0 5d bf c0 3c 83 89 d2 bd ca 89 1c 3e c7 68 74 bc
       0.02352875 -0.102801345 0.15286937 -0.014917559
0000d0 95 c0 1d bd 98 bf 1f 3e 3a aa 58 3e 66 f0 1e be
       -0.03851374 0.15600431 0.21158686 -0.15521392
0000e0 ba fa d5 3d 8d e8 cf 3e 72 e9 82 be 8f ac 7d be
       0.10448213 0.4060711 -0.2556873 -0.24772857
0000f0 1d 67 43 3d a5 ef c0 3e d2 26 90 bc f9 86 26 bd
       0.04770576 0.37682834 -0.017596636 -0.040656064
000100 2f 47 0f 3e ad da f9 bc 17 13 67 3e a3 21 af bd
       0.13991998 -0.03049978 0.22565876 -0.085513376
000110 33 65 59 be db 16 27 be 1d b8 83 be 14 62 08 bd
       -0.2123001 -0.16317312 -0.25726405 -0.03329666
000120 66 99 7a 3e e8 5d 08 be b6 8c 00 be f8 58 92 bd
       0.2447258 -0.13317072 -0.12553677 -0.07145876
000130 c7 45 7c 3d 26 a2 48 be 82 dc 3d 3b cd 1e c0 3c
       0.061589982 -0.19593105 0.0028970544 0.023452187
000140 29 76 4e 3e 10 be 8b 3d dc ae 35 be 83 4e 22 3e
       0.20162262 0.06823361 -0.17742485 0.15850262
000150 3b 6a 45 3d 89 b7 50 be 06 9d 87 be be d8 6c be
       0.048197012 -0.20382513 -0.26486987 -0.23129556
000160 4a 75 08 bd f9 8c 39 3e e2 86 24 3d ee 0e db 3d
       -0.03331498 0.18120183 0.040167697 0.10696207
000170 46 99 b1 be 6f 58 4e be 54 27 b4 be 68 26 ad bd
       -0.3468725 -0.20150922 -0.35186255 -0.08454591
000180 09 91 d0 bd 7d 0f 27 3e 2a fd d7 3d d1 ca 8f 3e
       -0.10183913 0.16314502 0.10546334 0.28084424
000190 27 33 9e 3e 9c ca 91 3d df 73 6b be 48 3d 06 bd
       0.308984 0.07118723 -0.2299342 -0.032773286
0001a0 ea 51 d2 bc 20 13 f2 bd bb 56 dc bd fd a4 50 3a
       -0.025673825 -0.11820054 -0.1075873 0.00079591555
0001b0 b9 77 60 3e 1d 0b 3f 3d c8 f6 34 3e 09 63 52 bd
       0.2192067 0.046641458 0.17672265 -0.05136398
0001c0 93 3e 93 bd 9f cb ab bd 4a d1 16 3e 7c 41 50 3d
       -0.071896695 -0.08388447 0.14728275 0.0508437
0001d0 f2 77 d7 3b f9 64 6e bd 81 ab 9a b8 f7 03 98 bd
       0.006575578 -0.058201764 -7.375237e-05 -0.07422631
0001e0 41 0d ea 3d 92 0d ed bd 16 74 90 3e 21 e9 6d be
       0.11428309 -0.11574854 0.28213567 -0.23233463
0001f0 3e e3 92 be 41 82 d4 bd 10 a9 2d 3e ff 9f d2 3a
       -0.28688997 -0.103764065 0.16959023 0.0016069411
000200 fb 19 0a be 14 df 43 bd 50 ff 50 3e 9f 7e a5 bd
       -0.13486473 -0.047820166 0.20409894 -0.08080792
000210 36 88 9b 3d 51 42 0c be 2a 0c 22 be c7 c7 3d 3e
       0.075943395 -0.13697173 -0.15824953 0.1853324
000220 4a 85 f0 bd 47 50 ec 3d 83 13 dc bd 05 13 37 bd
       -0.11744173 0.11538749 -0.10745909 -0.044695873
000230 33 09 73 bc 95 bf 23 be a4 e6 fa bc 46 7c 12 3e
       -0.014833736 -0.15991051 -0.030627556 0.14305219
000240 83 ca eb 3b 8d 45 16 bd b7 02 c5 3c f9 3b 63 3e
       0.007195772 -0.036687423 0.024049146 0.22190847
000250 8a 8e 3e 3d 88 5d a1 be b7 fb 8a 3e 64 24 69 be
       0.046522655 -0.3151667 0.27145168 -0.22767788
000260 c5 16 04 be 04 a9 4e bc 84 46 1c be 4e dd 43 be
       -0.12899311 -0.012613539 -0.15261275 -0.1912739
000270 db c4 54 3e 49 6e f0 bc c1 7a c9 3e 29 19 44 3e
       0.2077822 -0.029349463 0.39351466 0.19150223
000280 a4 2c cd bb 65 5f b5 3e dd e5 32 be 8c a6 32 3d
       -0.006261425 0.35424343 -0.17470498 0.043615863
000290 64 b6 7d 3e 31 ef df bd 4c eb f3 3d e9 58 e4 bd
       0.24776608 -0.10934294 0.11910114 -0.11149771
0002a0 47 d1 2f 3e 3a 46 28 be e0 b8 9e bd b6 26 be 3c
       0.17169677 -0.1643304 -0.07750106 0.023211818
0002b0 eb d2 aa bc 92 8d 8a 3d 02 fa b5 bd d8 9f 91 be
       -0.020852527 0.06765284 -0.08885576 -0.28442264
0002c0 ab 5a a6 bc 7f 0e 8e 3e 91 61 a3 be 62 ce 19 be
       -0.020306906 0.27745435 -0.31910375 -0.15020135
0002d0 3a dc d3 3d 86 89 cd 3d a3 89 8a 3d 29 2c 57 be
       0.10344739 0.10035996 0.06764533 -0.2101294
0002e0 0b 6a 44 3e 3e 40 64 3e 6a 3f 01 3e 37 a8 ca bd
       0.19181077 0.22290131 0.12621847 -0.09895366
0002f0 42 bc 03 3f a8 1a 86 3d a8 ad 29 3e d8 b3 d0 3d
       0.51459134 0.06548053 0.16570151 0.101905525
000300 e5 5f 41 be a4 fb 60 be 71 52 77 be 72 58 cc bd
       -0.18884237 -0.21970993 -0.24152543 -0.09977807
000310 ac 59 11 3d 83 30 b4 bd 26 f5 dc 3d c5 9f ba bd
       0.03548591 -0.087983154 0.10788946 -0.09112505
000320 18 bf 8d 3c 2c da 4e be 1e 81 71 3e 00 74 99 3e
       0.017303035 -0.20200413 0.2358441 0.29971313
000330 42 7a 5a bc 2f 77 32 3e e4 b9 b9 bd ab ae 08 3e
       -0.013334813 0.17428277 -0.09068659 0.1334788
000340 3e 34 a3 be cd c4 4d 3b db b8 77 bd 3c ef 4f 3e
       -0.31875795 0.003139782 -0.060479026 0.20306104
000350 9b 1a 79 be 50 93 b1 3e 44 30 6f bb 3f 73 0f 3e
       -0.24326555 0.34682703 -0.0036497274 0.14008807
000360 c7 01 47 be 21 88 29 be 0e f2 b3 3d d3 10 a8 be
       -0.19434272 -0.16555835 0.08786403 -0.32825336
000370 ae 5e 9b 3c 31 52 76 3a c1 66 7b be be ac 2a be
       0.018966045 0.0009396403 -0.24550916 -0.16667458
000380 9c b9 ae 3d c5 1c 05 be f4 5a 90 3c 25 70 12 be
       0.08531496 -0.12999256 0.017621495 -0.14300592
000390 9d 4e 92 3c a1 fd da 3c 6e 34 b7 bd 80 d7 60 be
       0.017859751 0.026732268 -0.08945547 -0.21957207
0003a0 6e 74 ab bd 02 46 76 be 9b c6 1c be 01 e0 45 3e
       -0.083718166 -0.24050143 -0.15310137 0.19323732
0003b0 9d ee ca bd 61 8f 99 be 25 79 33 3c ec 80 95 3e
       -0.09908793 -0.29992202 0.010954176 0.29199922
0003c0 a5 ee 11 be d8 97 35 3d 26 01 4e be 7b 20 5c 3e
       -0.14251192 0.044334263 -0.20117626 0.21496765
0003d0 9f 0f 97 bd 59 5e 44 3e 05 70 03 3d ab 88 c1 bd
       -0.07376026 0.19176616 0.032089252 -0.094498955
0003e0 10 10 1b be 89 b8 13 bd 35 76 b4 bc 5c a2 fc 3d
       -0.15142846 -0.03606466 -0.022029022 0.12335655
0003f0 0e 55 aa bd ab 31 92 3e 90 4f 76 3d 9b cb a7 3c
       -0.08317004 0.2855352 0.06013447 0.020482829

network.0.bias f4 [64]
000000 00 00 00 00 00 00 00 00 00 00 00 00 00 00 00 00
       0.0 0.0 0.0 0.0
000010 00 00 00 00 00 00 00 00 00 00 00 00 00 00 00 00
       0.0 0.0 0.0 0.0
000020 00 00 00 00 00 00 00 00 00 00 00 00 00 00 00 00
       0.0 0.0 0.0 0.0
000030 00 00 00 00 00 00 00 00 00 00 00 00 00 00 00 00
       0.0 0.0 0.0 0.0
000040 00 00 00 00 00 00 00 00 00 00 00 00 00 00 00 00
       0.0 0.0 0.0 0.0
000050 00 00 00 00 00 00 00 00 00 00 00 00 00 00 00 00
       0.0 0.0 0.0 0.0
000060 00 00 00 00 00 00 00 00 00 00 00 00 00 00 00 00
       0.0 0.0 0.0 0.0
000070 00 00 00 00 00 00 00 00 00 00 00 00 00 00 00 00
       0.0 0.0 0.0 0.0
000080 00 00 00 00 00 00 00 00 00 00 00 00 00 00 00 00
       0.0 0.0 0.0 0.0
000090 00 00 00 00 00 00 00 00 00 00 00 00 00 00 00 00
       0.0 0.0 0.0 0.0
0000a0 00 00 00 00 00 00 00 00 00 00 00 00 00 00 00 00
       0.0 0.0 0.0 0.0
0000b0 00 00 00 00 00 00 00 00 00 00 00 00 00 00 00 00
       0.0 0.0 0.0 0.0
0000c0 00 00 00 00 00 00 00 00 00 00 00 00 00 00 00 00
       0.0 0.0 0.0 0.0
0000d0 00 00 00 00 00 00 00 00 00 00 00 00 00 00 00 00
       0.0 0.0 0.0 0.0
0000e0 00 00 00 00 00 00 00 00 00 00 00 00 00 00 00 00
       0.0 0.0 0.0 0.0
0000f0 00 00 00 00 00 00 00 00 00 00 00 00 00 00 00 00
       0.0 0.0 0.0 0.0

network.2.weight f4 [128, 64]
000000 8d 88 3f 3d 00 71 21 bd f4 fa 3e 3e ea 06 b2 bd
       0.046761084 -0.039414406 0.18650419 -0.08692725
000010 89 16 a2 3c af 96 67 be f5 a3 ec bd 4d 56 21 3d
       0.019786136 -0.22616075 -0.1155471 0.039388943
000020 f3 75 f5 bc 47 0f d2 bd 7b e8 ab 3c 73 c3 4e bc
       -0.02996347 -0.1025682 0.020984879 -0.012619841
000030 30 33 dd 3e a5 48 fa 3c e1 3b 7f 3d c5 a7 0b be
       0.43203115 0.030552218 0.062312964 -0.13638218
000040 4b 86 de 3d 66 df 05 be 3e af 0d 3e 9f 4b eb bc
       0.10865458 -0.13073501 0.13836381 -0.028722582
000050 1c 2f 85 3e bb 91 53 be a6 21 5e 3d 5e c7 a5 3c
       0.26012504 -0.2066106 0.05423131 0.020236667
000060 0f f6 14 3e cb aa a7 3d 61 6e 25 3e 6b 56 10 be
       0.14546989 0.08186873 0.16155387 -0.14095466
000070 37 43 78 bd b5 db 84 be 32 fc d4 3d b2 33 da 3d
       -0.060610976 -0.25948873 0.10399665 0.10654391
000080 74 4a 9a bc 46 92 c1 3c 0b 01 1a bc 9a 57 c2 bc
       -0.01883433 0.023629319 -0.009399663 -0.023723412
000090 88 68 9d 3d 45 95 23 be 9e 01 1a be 05 3d 16 3e
       0.076859534 -0.1597491 -0.1503968 0.14671715
0000a0 19 9b c0 3d 45 c3 09 be 95 a8 95 be b1 49 41 be
       0.094045825 -0.13453396 -0.2923018 -0.18875767
0000b0 58 33 f8 bd e2 a8 2a be 26 e8 08 bd f9 44 d5 3c
       -0.12119168 -0.16665986 -0.03342452 0.026033865
0000c0 a3 83 dc bd 65 ac 8e bd 75 e4 2b be 32 a1 b3 3c
       -0.10767295 -0.069664754 -0.16786368 0.02192745
0000d0 2a 9b 22 3e 2c 36 80 bd 4f b2 50 bd e2 52 66 be
       0.15879503 -0.062603325 -0.0509513 -0.22492555
0000e0 d1 8d 19 3e c3 dc 21 3d 03 d0 0b 3e d3 24 a2 3d
       0.14995505 0.039517175 0.13653569 0.0791718
0000f0 c9 5c da bb 83 89 26 be 02 39 78 3d 39 31 0f be
       -0.006663893 -0.16263394 0.060601242 -0.1398362
000100 94 ad 4d 3e ed 5b 28 be 4c f6 82 3d e0 d3 82 3d
       0.20085746 -0.16441317 0.06394634 0.06388068
000110 a8 52 1b bd e4 f0 af 3d 64 7c 28 bd 77 cb bc 3d
       -0.037920624 0.08590868 -0.041134253 0.09218495
000120 18 e7 ac 3c 16 7c 07 be 9a f1 25 bd 3a 2c b3 3b
       0.021106288 -0.13230929 -0.040513612 0.0054679187
000130 24 bf f0 3d ab a1 2e 3e c2 3e d0 bd ef 6f 29 3e
       0.11755207 0.17053859 -0.1016822 0.16546606
000140 47 2a 94 3c c0 3e 12 3e 13 fa 13 3e c3 4a 65 bd
       0.018086566 0.1428175 0.14450864 -0.0559795
000150 05 a7 37 be f5 f9 4b 3e 85 41 e9 3d 44 bb ea 3d
       -0.17934807 0.1991957 0.1138945 0.11461499
000160 a2 83 8d 3e 31 5d d1 3c fa 54 e3 3d 25 26 b8 3d
       0.2763949 0.025557132 0.11100192 0.089916505
000170 bf f1 12 be 23 3f 5b 3d ac 25 4b bd 8f 96 ce bd
       -0.14350031 0.05352701 -0.049596474 -0.100873105
000180 8d 37 81 3e aa 62 a8 bd 04 5a e9 bd 27 fb b3 bc
       0.25237694 -0.08221944 -0.11394122 -0.021970345
000190 fb a1 bc bd dc 4a 7a bd 58 4e 4d 3d 5f b4 e9 bd
       -0.09210583 -0.061106548 0.050123543 -0.11411356
0001a0 29 66 c4 bd a5 e1 15 bc ba b7 93 bd 96 86 f3 3d
       -0.09589798 -0.009148036 -0.072127774 0.118909046
0001b0 57 04 f2 bc e0 13 39 3d d1 cd 12 be f8 83 81 3d
       -0.029543085 0.04518497 -0.14336325 0.06323999
0001c0 e0 94 be bd 28 41 db 3c ba 18 dc bd 2b 0b b5 bd
       -0.093057394 0.026764467 -0.10746904 -0.08840021
0001d0 c1 05 a3 bd 88 27 5f be cd cc 12 be e0 82 73 3d
       -0.07960082 -0.21792424 -0.14335938 0.059450984
0001e0 99 98 0b 3e 29 39 6f bd bf 6c ac bd 18 51 1b be
       0.1363243 -0.05840412 -0.08419179 -0.15167654
0001f0 e4 d3 fa 3d ed 25 e7 3d 55 ad 12 3e 2a 0b f3 bb
       0.12247446 0.11286531 0.14323933 -0.0074171023
000200 0b b9 39 3e 0b 0f 8e bb 8c fb a5 bd 6d 97 1c 3e
       0.18136995 -0.0043352894 -0.081046194 0.1529214
000210 1d 65 a5 3d 2b 61 81 be bf e6 d3 bd dd bd 96 3e
       0.080759265 -0.25269446 -0.10346746 0.2944173
000220 9e f5 82 3d a2 13 29 be df c1 07 bd 03 98 4f bd
       0.06394504 -0.16511396 -0.033143874 -0.05068208
000230 0c 8d 8c 3d 5f 0e eb bd 79 05 54 3e aa cc 1e 3e
       0.0686284 -0.114773504 0.20705213 0.1550776
000240 b8 90 e3 3d 54 93 57 3e 44 a3 e5 3a f2 a1 f4 bd
       0.11111587 0.21052295 0.001751997 -0.11944951
000250 5e a1 52 3d 56 95 cb bd 10 59 31 3d 20 9b 32 3e
       0.051423423 -0.09940593 0.043297827 0.17441988
000260 74 e2 56 3d ee 40 c4 3c e0 e4 35 3d ee ac 2b bd
       0.052462056 0.023956742 0.044407725 -0.041912965
000270 4d d1 ac 3d 27 c6 b3 3d 68 b7 26 bc 90 62 ad be
       0.084383585 0.08778029 -0.010175563 -0.3386426
000280 8f e1 bb bb 11 98 b1 3d dc 3a 6d 3c ed 4c 71 3d
       -0.005733676 0.086715825 0.014479365 0.058911253
000290 57 d0 54 bd 5c da 2a 3e 97 83 2f 3e ef 3f 31 be
       -0.0519565 0.1668486 0.17140041 -0.17309545
0002a0 c2 90 4b 3e 9b 2f 8d bd 3f 99 0f 3e a6 be f4 3c
       0.1987944 -0.06893846 0.14023302 0.029876065
0002b0 4d ec ba 3d 2e 3c d5 3d 4e 4d 5e bd d3 a9 7a be
       0.09127102 0.10411869 -0.054272942 -0.24478845
0002c0 e7 a8 72 bd 00 64 70 3c 9c ab 48 3d 77 27 61 3d
       -0.05924311 0.014672279 0.048991784 0.054969277
0002d0 87 df 73 3d a4 9f 62 3e ff 32 3a bd ce 36 44 bd
       0.059539344 0.2213121 -0.04545879 -0.04790383
0002e0 38 cb 2e be be 5b f1 3d b5 0c 04 be 27 e5 00 3c
       -0.1706971 0.117850766 -0.12895472 0.007867134
0002f0 53 84 09 be a6 7a 24 be 8d 6d 90 3e 4c e7 e0 bd
       -0.13429384 -0.16062412 0.2820858 -0.109816164
000300 36 53 a3 bb 7d 32 78 bc 26 c2 1a bc 04 4b a9 3d
       -0.0049842848 -0.015148756 -0.009445703 0.08266261
000310 4d a9 42 3a cc 2d 5b bc 99 96 db 3c dd 18 da 3e
       0.00074257405 -0.013377618 0.026805209 0.42597094
000320 08 27 d5 3d 8c c9 59 be 9b 01 9a 3d 76 1d 7b 3d
       0.10407835 -0.2126829 0.075198375 0.061307393
000330 98 12 a2 bd d0 68 38 bb 84 66 65 3c a2 1e 37 3e
       -0.07913703 -0.0028138645 0.014001492 0.17882779
000340 42 71 43 be e9 1a f5 3d e2 82 32 bd c1 c1 4c 3e
       -0.19086173 0.11968023 -0.04358185 0.19995786
000350 ab d6 bb bc 00 52 0d be a9 45 d8 bd 8d 7f cd 3d
       -0.02292951 -0.13800812 -0.105601616 0.10034094
000360 4c 6e f5 3d 0a d5 e2 bd 3f d8 26 be 2b a0 2b be
       0.11983928 -0.1107579 -0.16293429 -0.16760318
000370 7d 8a 83 bd 31 62 6e be 1c 8e a1 3d cf 14 24 be
       -0.06422899 -0.23279645 0.07888433 -0.16023563
000380 d6 70 ea bc 7a 73 d7 3c b9 f6 3e 3d 53 6b 71 bd
       -0.028618257 0.02630018 0.04662201 -0.058940243
000390 66 0a b8 3d 89 5e b4 bd f2 69 d4 3d 2a dc 77 bd
       0.08986358 -0.08807094 0.1037177 -0.0605127
0003a0 3a c9 c5 3d e2 15 f6 bc 1d 7f e4 3c 27 ad 45 be
       0.096575215 -0.030039731 0.027892644 -0.19304334
0003b0 cf e1 54 be 03 4a 9e 3d 1d 9d 04 be 4f b1 fc 3d
       -0.20789264 0.0772896 -0.12950559 0.123385064
0003c0 6e ee 07 3d 58 d3 26 be af 20 26 3d a1 02 d0 3d
       0.03318637 -0.16291559 0.040558513 0.101567514
0003d0 c3 60 97 bc 0d 1f 60 3d 03 9b 3c 3a a3 2e bf 3d
       -0.018478757 0.054717112 0.00071947294 0.09335067
0003e0 81 9e 69 3b 1e a2 87 bd 79 d0 09 be e1 ad 1c 3e
       0.0035647454 -0.06622718 -0.13458432 0.15300705
0003f0 7c 76 2f 3e 31 3a ad 3d b7 9d af 3b ba 9e 5c 3e
       0.17135042 0.08458365 0.0053593772 0.21544924

network.2.bias f4 [128]
000000 00 00 00 00 00 00 00 00 00 00 00 00 00 00 00 00
       0.0 0.0 0.0 0.0
000010 00 00 00 00 00 00 00 00 00 00 00 00 00 00 00 00
       0.0 0.0 0.0 0.0
000020 00 00 00 00 00 00 00 00 00 00 00 00 00 00 00 00
       0.0 0.0 0.0 0.0
000030 00 00 00 00 00 00 00 00 00 00 00 00 00 00 00 00
       0.0 0.0 0.0 0.0
000040 00 00 00 00 00 00 00 00 00 00 00 00 00 00 00 00
       0.0 0.0 0.0 0.0
000050 00 00 00 00 00 00 00 00 00 00 00 00 00 00 00 00
       0.0 0.0 0.0 0.0
000060 00 00 00 00 00 00 00 00 00 00 00 00 00 00 00 00
       0.0 0.0 0.0 0.0
000070 00 00 00 00 00 00 00 00 00 00 00 00 00 00 00 00
       0.0 0.0 0.0 0.0
000080 00 00 00 00 00 00 00 00 00 00 00 00 00 00 00 00
       0.0 0.0 0.0 0.0
000090 00 00 00 00 00 00 00 00 00 00 00 00 00 00 00 00
       0.0 0.0 0.0 0.0
0000a0 00 00 00 00 00 00 00 00 00 00 00 00 00 00 00 00
       0.0 0.0 0.0 0.0
0000b0 00 00 00 00 00 00 00 00 00 00 00 00 00 00 00 00
       0.0 0.0 0.0 0.0
0000c0 00 00 00 00 00 00 00 00 00 00 00 00 00 00 00 00
       0.0 0.0 0.0 0.0
0000d0 00 00 00 00 00 00 00 00 00 00 00 00 00 00 00 00
       0.0 0.0 0.0 0.0
0000e0 00 00 00 00 00 00 00 00 00 00 00 00 00 00 00 00
       0.0 0.0 0.0 0.0
0000f0 00 00 00 00 00 00 00 00 00 00 00 00 00 00 00 00
       0.0 0.0 0.0 0.0
000100 00 00 00 00 00 00 00 00 00 00 00 00 00 00 00 00
       0.0 0.0 0.0 0.0
000110 00 00 00 00 00 00 00 00 00 00 00 00 00 00 00 00
       0.0 0.0 0.0 0.0
000120 00 00 00 00 00 00 00 00 00 00 00 00 00 00 00 00
       0.0 0.0 0.0 0.0
000130 00 00 00 00 00 00 00 00 00 00 00 00 00 00 00 00
       0.0 0.0 0.0 0.0
000140 00 00 00 00 00 00 00 00 00 00 00 00 00 00 00 00
       0.0 0.0 0.0 0.0
000150 00 00 00 00 00 00 00 00 00 00 00 00 00 00 00 00
       0.0 0.0 0.0 0.0
000160 00 00 00 00 00 00 00 00 00 00 00 00 00 00 00 00
       0.0 0.0 0.0 0.0
000170 00 00 00 00 00 00 00 00 00 00 00 00 00 00 00 00
       0.0 0.0 0.0 0.0
000180 00 00 00 00 00 00 00 00 00 00 00 00 00 00 00 00
       0.0 0.0 0.0 0.0
000190 00 00 00 00 00 00 00 00 00 00 00 00 00 00 00 00
       0.0 0.0 0.0 0.0
0001a0 00 00 00 00 00 00 00 00 00 00 00 00 00 00 00 00
       0.0 0.0 0.0 0.0
0001b0 00 00 00 00 00 00 00 00 00 00 00 00 00 00 00 00
       0.0 0.0 0.0 0.0
0001c0 00 00 00 00 00 00 00 00 00 00 00 00 00 00 00 00
       0.0 0.0 0.0 0.0
0001d0 00 00 00 00 00 00 00 00 00 00 00 00 00 00 00 00
       0.0 0.0 0.0 0.0
0001e0 00 00 00 00 00 00 00 00 00 00 00 00 00 00 00 00
       0.0 0.0 0.0 0.0
0001f0 00 00 00 00 00 00 00 00 00 00 00 00 00 00 00 00
       0.0 0.0 0.0 0.0

network.4.weight f4 [64, 128]
000000 57 31 5b 3d 5b 76 18 bd 80 4c 93 3d 3a 2e 6c 3d
       0.05351385 -0.037222248 0.071923256 0.057661273
000010 14 e5 9a bd ac 69 b6 bd 4b 02 0f be 05 6a fc 3b
       -0.075632244 -0.08906874 -0.13965718 0.007703068
000020 f9 6f 04 bd 86 b1 38 be 48 c4 d7 3d f9 79 0b be
       -0.032333348 -0.1803647 0.105354846 -0.13620748
000030 7b 69 70 3d 2b 80 90 3d 77 fc bc 3d 21 24 4e 3e
       0.058694344 0.07055696 0.09227841 0.2013097
000040 76 91 32 be 46 9b 46 b9 a7 b3 f1 3c af 6e 44 be
       -0.17438301 -0.00018940595 0.02950461 -0.19182847
000050 df 83 ca 3c c0 b0 fd 3c 94 0c 42 bc 62 88 61 3d
       0.024721084 0.03096807 -0.011843819 0.055061705
000060 59 0f 0d 3c de db 98 3d f9 b2 5b bc 44 e0 4d 3e
       0.008609616 0.07463811 -0.01340937 0.20105082
000070 1f a6 e9 bd 9d b0 78 bd b6 46 7b bc cc 42 8a 3d
       -0.11408638 -0.060715307 -0.015336683 0.06751022
000080 81 8c 07 3e 85 43 3e be 76 1f 1c 3e 08 f3 55 3e
       0.13237192 -0.18580444 0.15246376 0.2089349
000090 fe 48 94 bd 7f 1d 38 be 14 ca 71 be 82 fd 87 bd
       -0.07240485 -0.17980002 -0.23612243 -0.0664015
0000a0 73 8a b5 bd e7 50 b9 3e 0a bb 8c 3d 51 a1 f8 bd
       -0.08864298 0.36194536 0.06871612 -0.12140144
0000b0 9d dc d0 bd 03 65 15 be 69 3c 52 bc 5e d8 84 bd
       -0.10198329 -0.14589314 -0.012831786 -0.06486581
0000c0 9c 8f 1a 3e 6c 1b 11 3d e3 fb 9e bd 61 f0 57 3e
       0.15093845 0.035426542 -0.07762887 0.21087791
0000d0 60 54 da 3c 3a cb 29 bc 52 23 ea 3d 2b 28 a7 bd
       0.026651561 -0.010363394 0.11432518 -0.08161958
0000e0 5d 1a 04 3d 27 28 c1 3d f3 d3 0a be 2b 2e d6 3c
       0.032251704 0.094314866 -0.13557415 0.026145061
0000f0 6b f6 f7 bd 59 52 d8 bd e9 a4 78 3c 79 46 e0 3d
       -0.121075474 -0.105625816 0.015176036 0.109509416
000100 52 bf 4b be 7a 04 7e b9 22 21 98 bd 6e 6a da 3c
       -0.19897202 -0.00024224995 -0.074281946 0.026662078
000110 42 70 73 3d 44 1b 31 3e f0 ce 84 3e 65 ee 0b 3c
       0.05943323 0.17295557 0.2593913 0.008540724
000120 03 b0 bb 3e 45 bc 5a 3e 03 46 13 be 68 a0 34 be
       0.36657724 0.21360882 -0.14382176 -0.17639315
000130 82 01 99 3d 0e 2c a0 bd 22 a6 3e be 5a ca 6d 3c
       0.07470991 -0.07820903 -0.18618062 0.014513576
000140 8d c9 6a 3c f8 0b 01 3b cc d3 29 bd 28 2e 38 be
       0.01433028 0.0019690972 -0.04146175 -0.17986357
000150 1b cd 66 3e 6c c7 15 3d 08 1d 22 3e 48 43 19 bd
       0.22539179 0.036567137 0.15831387 -0.03741768
000160 54 9c 6a bd 96 a9 e0 bd 79 fc 67 3e 5b c2 87 bd
       -0.057277992 -0.10969846 0.22654904 -0.06628867
000170 15 8c 48 3d 51 ca 2f 3d 74 29 6c bd e6 d6 ae bd
       0.048961718 0.042917553 -0.05765672 -0.085370824
000180 0e 1a 33 be a6 a7 54 bd bd bc 89 3e ba 98 a3 bd
       -0.17490408 -0.051917695 0.26901808 -0.07988115
000190 dc 56 df 3d 17 ae 1e 3e 6b 9b 86 bd b6 a3 ca 3d
       0.10905239 0.15496098 -0.065726124 0.09894507
0001a0 7c 82 0d 3e 9f a4 f3 bd f7 d6 dd 3d 0d 6d d6 3d
       0.13819307 -0.11896633 0.10832017 0.104700185
0001b0 ba 6e 83 bc 7a fd 14 3e a3 30 02 bd b4 b9 cc bb
       -0.01604401 0.14549819 -0.031784665 -0.0062477235
0001c0 d5 75 48 3e f7 35 2b be f5 9a 06 be d5 e0 3c 3e
       0.195762 -0.16719805 -0.13145049 0.18445142
0001d0 ef 64 64 3c 56 b3 be 3d e4 39 41 bd 94 93 17 bd
       0.01394008 0.09311549 -0.04717435 -0.037005976
0001e0 d4 36 39 3e fa 70 12 3e 31 2f 69 be eb ed 85 3d
       0.18087322 0.1430091 -0.22771908 0.0653952
0001f0 48 96 94 bd 27 4b 8f 3d bf 0e 8f 3c 89 ac 98 3d
       -0.072552264 0.06996756 0.017463086 0.074547835
000200 86 d6 1d 3e 26 c3 59 be 01 b2 2b bc b4 0f 57 3d
       0.15413865 -0.2126585 -0.010479451 0.05250521
000210 d5 cf 72 3e b9 5e 2a be fa e7 df bc fa 95 05 3d
       0.23712094 -0.16637696 -0.027332295 0.032613732
000220 6c 61 29 3e 42 ab 4c 3c 9c 26 ef bd d0 cf cd bd
       0.1654107 0.012492003 -0.11677286 -0.10049403
000230 10 4c c3 bd 54 e1 f3 3d 15 f2 ae 3d 7d 31 87 bd
       -0.09535992 0.11908212 0.08542267 -0.06601236
000240 ab a0 db bc 37 8b d9 3c 2b 7c 5c 3e 49 cf f2 3c
       -0.02681001 0.02655564 0.21531741 0.029639857
000250 f5 56 f0 bd 63 1f c0 3b 2e a8 45 3e 5d 63 18 be
       -0.11735336 0.0058631166 0.19302437 -0.14881654
000260 df 46 82 bc af 51 10 3e c7 58 28 3e a5 5e d7 3c
       -0.015902935 0.1409366 0.16440116 0.026290247
000270 13 af c2 3b 0e 5f 03 be 07 24 8c 3d 10 47 5c be
       0.0059412806 -0.12829229 0.06842809 -0.21511483
000280 35 2f 86 bd 3f 7a ed 3d 66 ef 71 3d 96 8c 15 be
       -0.06551973 0.11595582 0.0590662 -0.1460441
000290 27 8a e1 bc e4 7c 24 3e ee 81 c3 bd 20 b8 dd bd
       -0.027531696 0.16063267 -0.095462665 -0.10826135
0002a0 4f d8 a3 bd 8b de 45 3d 47 65 a9 3c 12 af 33 be
       -0.08000242 0.048307937 0.020678176 -0.17547253
0002b0 77 ce ce bc 77 7e 97 3c a5 4a a1 bd 9c 52 12 3e
       -0.025244934 0.01849292 -0.078755654 0.14289325
0002c0 27 36 a6 3e ac d6 7d bd 8e a0 b3 3d 76 c2 14 3e
       0.3246319 -0.061972305 0.08770858 0.14527306
0002d0 ff f7 77 bb 2f 86 2b 3d c2 b3 21 be 48 e1 7a 3e
       -0.0037837026 0.041876014 -0.15791228 0.245
0002e0 cb dd cb bd a7 db 98 3c fb ba 64 3e 17 18 5d 3e
       -0.09954413 0.018659426 0.22336952 0.21591221
0002f0 8c c2 0d 3e a2 a6 fe bd d9 85 ca bd b4 e7 14 3e
       0.13843745 -0.124341264 -0.09888811 0.14541513
000300 33 db af bd 17 9e d1 bd 83 42 01 3e 2a 77 f4 bd
       -0.08586731 -0.10235231 0.12623028 -0.11936791
000310 54 41 b4 bc fe 71 c3 bc bc ae ae 3e 68 9d c2 bd
       -0.022003807 -0.023858067 0.34117687 -0.09502679
000320 60 c8 d7 bd 93 f6 a0 bd 2d 79 e0 3d 52 a9 04 3c
       -0.105362654 -0.0785953 0.109606124 0.00809701
000330 f9 36 be bc 48 e0 41 3e af 37 47 be 21 e7 ab bd
       -0.023219572 0.18933213 -0.19454835 -0.08393694
000340 8c 07 61 bc 2a 00 c3 3c b0 98 a6 bd 1a 9f 93 be
       -0.0137347095 0.02380379 -0.081345916 -0.28832322
000350 d1 42 f5 bd 4a bb 6f 3e 09 86 1c be d8 ef ae bd
       -0.11975635 0.23411289 -0.15285505 -0.0854184
000360 29 38 05 be 04 6a 74 3d be 79 0f 3e ca d6 92 bd
       -0.13009705 0.059671417 0.14011285 -0.07169874
000370 5b fc f7 bd bb a4 3f 3e 4b d2 ce bd 56 8d 51 3d
       -0.1210868 0.18715183 -0.10098704 0.05116018
000380 e1 c6 5c 3d ad 91 68 3b 74 9d 4e be 7b c4 c1 bc
       0.053900603 0.003548722 -0.20177251 -0.02365326
000390 04 50 ff bd 37 75 8f 3b f9 39 54 3d 42 1d 19 3e
       -0.12466434 0.004377987 0.0518131 0.14952567
0003a0 4a a2 3b 3d 54 c7 cd bc 86 6c 10 3e 4f 72 d2 bd
       0.045809068 -0.025119461 0.14103898 -0.10275709
0003b0 40 82 4a 3e 2e 65 55 3d 0b 04 04 3e f2 5f 94 be
       0.19776249 0.052098446 0.12892167 -0.2897945
0003c0 cf ea c5 bd cd b6 ba 3d b7 f8 e1 bd c8 65 bf bd
       -0.09663927 0.09116898 -0.11033767 -0.09345585
0003d0 bc 8e c0 3d 32 92 71 3d c1 0b 73 3d d5 e3 4a bd
       0.094022244 0.058977313 0.05933738 -0.049533684
0003e0 46 d7 36 be a9 6e 0b bd c6 1b 95 bd b5 c5 42 3d
       -0.17855558 -0.03404108 -0.07280688 0.04755183
0003f0 fa fb 89 3d 54 40 eb bd 7e 5e 3c 3d 70 25 75 3d
       0.06737514 -0.11486879 0.045988552 0.059850156

network.4.bias f4 [64]
000000 00 00 00 00 00 00 00 00 00 00 00 00 00 00 00 00
       0.0 0.0 0.0 0.0
000010 00 00 00 00 00 00 00 00 00 00 00 00 00 00 00 00
       0.0 0.0 0.0 0.0
000020 00 00 00 00 00 00 00 00 00 00 00 00 00 00 00 00
       0.0 0.0 0.0 0.0
000030 00 00 00 00 00 00 00 00 00 00 00 00 00 00 00 00
       0.0 0.0 0.0 0.0
000040 00 00 00 00 00 00 00 00 00 00 00 00 00 00 00 00
       0.0 0.0 0.0 0.0
000050 00 00 00 00 00 00 00 00 00 00 00 00 00 00 00 00
       0.0 0.0 0.0 0.0
000060 00 00 00 00 00 00 00 00 00 00 00 00 00 00 00 00
       0.0 0.0 0.0 0.0
000070 00 00 00 00 00 00 00 00 00 00 00 00 00 00 00 00
       0.0 0.0 0.0 0.0
000080 00 00 00 00 00 00 00 00 00 00 00 00 00 00 00 00
       0.0 0.0 0.0 0.0
000090 00 00 00 00 00 00 00 00 00 00 00 00 00 00 00 00
       0.0 0.0 0.0 0.0
0000a0 00 00 00 00 00 00 00 00 00 00 00 00 00 00 00 00
       0.0 0.0 0.0 0.0
0000b0 00 00 00 00 00 00 00 00 00 00 00 00 00 00 00 00
       0.0 0.0 0.0 0.0
0000c0 00 00 00 00 00 00 00 00 00 00 00 00 00 00 00 00
       0.0 0.0 0.0 0.0
0000d0 00 00 00 00 00 00 00 00 00 00 00 00 00 00 00 00
       0.0 0.0 0.0 0.0
0000e0 00 00 00 00 00 00 00 00 00 00 00 00 00 00 00 00
       0.0 0.0 0.0 0.0
0000f0 00 00 00 00 00 00 00 00 00 00 00 00 00 00 00 00
       0.0 0.0 0.0 0.0

actor.weight f4 [5, 64]
000000 cd c8 8f 3a 89 c6 f1 b7 21 57 b3 3a fd 3f db b9
       0.0010969877 -2.8821889e-05 0.0013682583 -0.0004181861
000010 81 41 73 ba 1c 57 9c 3a 8b 75 39 ba 17 82 a8 ba
       -0.0009279475 0.0011927816 -0.0007074705 -0.0012856153
000020 22 3a 47 ba ab 60 44 bb 5c ec 8f 39 16 e7 00 3b
       -0.000759991 -0.0029964845 0.00027451187 0.0019668988
000030 3b 99 a1 3a 07 14 8c 3a 7c f5 e7 ba 77 09 02 bb
       0.0012328991 0.0010687121 -0.0017697061 -0.0019842067
000040 a9 96 8c 39 77 26 b0 ba e5 a7 1a b9 15 f2 f1 ba
       0.0002681513 -0.0013439198 -0.0001474913 -0.0018458987
000050 d1 c7 14 bb e2 ec 49 ba 6b 6b 64 38 4c 40 14 ba
       -0.0022702108 -0.000770284 5.4459477e-05 -0.0005655333
000060 7e f9 dc 39 3b 10 95 39 97 05 46 b9 e1 54 f0 ba
       0.00042147556 0.00028431587 -0.00018884834 -0.0018335843
000070 0f 7f 7c 3a 7b d6 aa ba f9 bc 25 ba 2f 3f 41 3a
       0.00096319703 -0.0013033891 -0.00063224096 0.0007371781
000080 52 f3 b1 3a 1c a9 a3 39 42 1d b3 39 b2 32 ac 37
       0.0013576543 0.0003121578 0.0003416334 2.0527605e-05
000090 66 fa ba 3a ed b1 98 b9 82 de 62 ba 49 fa 4e 3a
       0.0014265298 -0.00029124264 -0.0008654372 0.0007895572
0000a0 cc 6a 53 ba 1c 02 da b9 72 8a 17 39 a4 6a 05 3a
       -0.0008064925 -0.00041581772 0.00014452057 0.0005089438
0000b0 c4 a2 43 ba 4f c8 01 ba 15 88 6c 39 47 9e 75 ba
       -0.00074629136 -0.0004950808 0.00022557408 -0.00093695935
0000c0 99 35 8c 3a c7 9f 3e 3b f4 03 8f 38 e2 5a f0 b9
       0.0010697126 0.0029086934 6.819508e-05 -0.0004584408
0000d0 7d aa 09 b9 55 b8 d1 3a 3d f5 30 3a 4a 11 bb ba
       -0.0001312885 0.001600037 0.00067504105 -0.001427212
0000e0 ce 50 75 ba 03 17 00 3a b8 01 c0 ba 47 8b 0f 3b
       -0.0009358049 0.00048862415 -0.001464895 0.0021903084
0000f0 57 ae af 39 eb 24 06 3a ec 44 a1 ba 12 20 88 bb
       0.00033508494 0.00051171955 -0.0012303866 -0.0041542137
000100 65 e3 63 38 60 2d 80 ba 9c df 47 ba 1c f3 57 3a
       5.4332795e-05 -0.0009779148 -0.0007624568 0.0008237825
000110 25 08 73 b8 8a 6c 09 ba 8c 55 fc 39 34 38 85 ba
       -5.79433e-05 -0.0005242309 0.00048128923 -0.0010163845
000120 24 bd e5 ba d9 83 99 ba 02 79 ee ba 77 f2 b2 ba
       -0.0017527682 -0.0011712267 -0.0018194022 -0.0013652582
000130 50 cf 0d ba 1d ff 4f 3a fc 56 ae ba 38 63 d5 ba
       -0.0005409615 0.0007934438 -0.001330107 -0.001628018
000140 1e ce 45 ba 5b 35 a4 ba 10 00 32 ba 35 99 8c 3a
       -0.00075456675 -0.0012528108 -0.00067901704 0.0010726812
000150 0e 06 dc 38 c6 5e 90 ba 49 e7 a9 39 05 9c a5 3a
       0.00010491545 -0.0011014573 0.00032406513 0.0012634998
000160 3d 9f a0 ba cd 32 15 3b 09 0c 8a ba e0 72 b8 3a
       -0.0012254488 0.0022765875 -0.0010532151 0.0014072321
000170 f7 e1 cf b9 b1 34 8d b9 a7 7d a1 ba 74 3f cd 3a
       -0.00039650474 -0.00026932874 -0.0012320773 0.0015659169
000180 a7 bb 67 3a 80 c8 93 ba 74 1f 91 ba 00 22 1a bb
       0.0008839913 -0.0011274964 -0.0011071996 -0.00235188
000190 5c 46 c7 b9 be 9e 48 bb 8f 8e db ba 94 81 34 3a
       -0.0003800866 -0.0030612196 -0.001675086 0.0006885764
0001a0 19 a9 e5 3a ad 66 21 3b 44 8e 08 3b 05 2b 7e 39
       0.0017521709 0.002462785 0.002083675 0.00024239354
0001b0 7e b3 ca 39 40 aa 0b ba 96 65 18 3a 1d 30 92 b8
       0.00038662174 -0.00053277984 0.00058134773 -6.970784e-05
0001c0 04 7d 9c 3a 58 79 26 bb 9c 1c 8f 3a bd 8c 29 b9
       0.0011939113 -0.0025401916 0.001091856 -0.00016169525
0001d0 b7 84 2f 3a 72 fb 4e ba 45 6c b2 3a 63 ac 0c b9
       0.0006695496 -0.00078957446 0.0013612589 -0.0001341566
0001e0 7f f6 96 3a 4f 4e 29 3b c2 02 02 ba 0d 8b 86 ba
       0.0011517553 0.002583403 -0.00049595174 -0.0010264829
0001f0 2c 6b df 3a 39 eb 10 ba 80 55 a4 39 10 33 82 b9
       0.001704549 -0.0005528215 0.0003134422 -0.00024833577
000200 c7 af 82 3a 44 86 97 3a bc a8 fd 3a a1 1c 36 ba
       0.0009970599 0.00115604 0.0019352655 -0.0006947015
000210 36 2c 18 bb af 5a f8 ba c7 98 7a b7 17 51 31 bb
       -0.002321971 -0.0018947924 -1.4936732e-05 -0.002705639
000220 75 4e c7 3a 3d 4e 61 39 e4 10 b2 ba d4 f8 2a 39
       0.0015205877 0.00021486818 -0.0013585356 0.00016305159
000230 94 d1 47 bb f4 e3 e1 3a 64 e3 ac ba 0f 5b f4 b9
       -0.0030489909 0.0017234073 -0.0013190326 -0.0004660715
000240 b4 0b bf 3a c3 30 6a 39 f3 5f fa ba cf da c9 3a
       0.0014575631 0.00022334144 -0.0019102081 0.0015400293
000250 a6 89 63 ba 1d 9f b1 39 4d 3b 19 ba 37 e1 d3 39
       -0.0008679874 0.0003387862 -0.00058453233 0.00040412854
000260 bc cc 17 3a 97 63 d0 ba 24 37 29 39 c7 6a 7d ba
       0.00057907007 -0.0015898821 0.00016137637 -0.0009667095
000270 40 23 e1 ba 81 c9 2e 3b 25 29 50 3a e1 cc e4 ba
       -0.0017176643 0.0026670399 0.00079407013 -0.0017456078
000280 d2 e7 f8 39 4f 49 db ba 32 2f 73 3a 21 53 1c ba
       0.00047474966 -0.0016730222 0.0009276747 -0.0005963315
000290 8b 1f 25 3a 6c 69 94 3a 56 23 b0 ba 9d b8 a1 ba
       0.0006298951 0.0011322922 -0.0013438265 -0.0012338344
0002a0 4b 3a a7 3a f0 cf 35 3a ed 25 9d 3a eb 67 6c b9
       0.0012758462 0.0006935587 0.0011989452 -0.00022545426
0002b0 5b fd 94 b9 65 7f e5 3a bc eb 36 ba bf a9 03 ba
       -0.00028417524 0.001750928 -0.0006977876 -0.00050225476
0002c0 7c bf 17 ba 6b 37 3b ba ab 2a 1f bb 35 42 7f ba
       -0.0005788726 -0.0007141742 -0.0024286907 -0.00097373436
0002d0 1d 12 ef 3a d4 55 6e 39 12 89 db 38 f7 69 91 3a
       0.0018239651 0.00022729422 0.00010468265 0.0011094202
0002e0 20 87 33 ba 54 5e 3b 38 a1 47 46 ba 86 c6 31 39
       -0.00068484433 4.4672124e-05 -0.0007563774 0.00016953991
0002f0 dd 51 77 ba 90 c5 01 3a b7 36 fe b9 fa 13 88 b9
       -0.0009434501 0.00049503986 -0.0004848742 -0.00025954825
000300 55 96 b8 ba 38 30 de 3a 85 09 f4 b9 3d fc 24 ba
       -0.0014082888 0.0016951626 -0.000465464 -0.000629369
000310 9d c8 b3 ba f7 7d 04 ba e9 a5 74 39 db 2e d5 ba
       -0.0013716404 -0.00050541706 0.0002333146 -0.0016264574
000320 61 0c b1 3a 77 c8 ad ba ea 88 e3 3a 00 50 3f ba
       0.0013507718 -0.0013258596 0.0017359529 -0.00072979927
000330 14 a7 f4 39 a6 74 85 39 73 42 ac 3a 5b 6c 76 39
       0.0004666379 0.00025454647 0.0013142362 0.00023500754
000340 5c 53 ef 39 b2 e2 2f 39 27 d3 1a 3b 0b 04 ea 38
       0.0004564774 0.00016773751 0.0023624392 0.000111587426
000350 e9 f7 78 b9 8f 21 d8 b9 a1 71 80 3a 3d 0b 8c 3a
       -0.00023743477 -0.00041223734 0.0009799489 0.0010684502
000360 dd cc 0c 3a e2 49 44 b9 81 b7 90 b9 24 f0 c3 3a
       0.0005371103 -0.0001871954 -0.0002760254 0.0014948887
000370 af 27 12 3a 09 b8 0f ba f7 56 05 3b ca 5e d5 3a
       0.00055753713 -0.00054824405 0.0020346025 0.001627886
000380 7e d5 fd ba e7 4a 90 b9 83 be 73 3a 87 6f 33 3b
       -0.0019365994 -0.00027521627 0.0009298103 0.0027379708
000390 04 13 03 3b ae ef 6c 3a a9 ca a5 39 a9 0d ac ba
       0.0020000348 0.00090384006 0.00031622246 -0.001312663
0003a0 86 85 64 3a 82 69 37 3b 9d c9 1f 3b cb bc c0 b9
       0.00087174063 0.0027986472 0.0024381645 -0.00036761755
0003b0 73 34 ea ba e1 d4 6f b8 d8 5e 8a 3a f4 5d 9f ba
       -0.0017868414 -5.71803e-05 0.001055683 -0.0012158738
0003c0 37 8c ac 3a 86 d8 12 ba c7 e0 3f 3a 25 37 83 ba
       0.0013164346 -0.00056017225 0.0007319566 -0.0010010941
0003d0 bd c5 7d ba c3 a5 93 3a b8 46 bc b9 ab ab 43 ba
       -0.00096806494 0.0011264611 -0.00035910844 -0.000746424
0003e0 6f 9c c9 ba be af 9b 3a a4 de 0d 3b fb 58 d2 b8
       -0.0015381704 0.0011877937 0.0021647597 -0.00010030154
0003f0 d7 61 7c 37 79 b4 39 bb f6 63 8b b7 94 8c 4c b9
       1.5043151e-05 -0.002833633 -1.661664e-05 -0.00019507325

actor.bias f4 [5]
000000 00 00 00 00 00 00 00 00 00 00 00 00 00 00 00 00
       0.0 0.0 0.0 0.0
000010 00 00 00 00
       0.0

critic.weight f4 [1, 64]
000000 7b 32 91 3d 8b 6e fe 3d aa 37 bf be 9e 68 08 be
       0.070897065 0.12423428 -0.37347156 -0.13321158
000010 ce a1 34 3e cc e5 37 3b 6f 2f 55 be 97 0f 2a 3d
       0.17639849 0.0028060554 -0.20818876 0.041518774
000020 51 19 20 3d eb 78 d4 3d c2 6e 4d be 67 4f 79 3e
       0.039086644 0.10374626 -0.20061782 0.24346696
000030 26 9a b0 be ae 2a 35 3e 2e 57 2b bd 76 cc 6a 3c
       -0.34492606 0.17692062 -0.041831188 0.014330974
000040 50 ff a8 bd 96 b9 8e bd e3 24 3a be 58 5f 2e be
       -0.08251822 -0.069689915 -0.18178134 -0.17028558
000050 69 f3 26 bd 5c 30 85 be d9 a0 2f be 62 c0 ed 3b
       -0.040759478 -0.26013458 -0.17151202 0.0072556
000060 9e e6 3c be a9 03 93 be 0f 96 e3 3c 6a 52 c9 3c
       -0.18447348 -0.2871373 0.027781514 0.02457543
000070 8a b4 89 3e 5a 59 b4 bd 22 0d 80 3d 6c 15 e2 3c
       0.26895553 -0.08806105 0.06252505 0.027598105
000080 71 51 f8 3d 6c 82 dc 3e 75 53 4b 3e 2e 33 6b 3d
       0.12124909 0.43068254 0.19856055 0.057421856
000090 e2 d6 0b be 8d 70 57 3d 8e ba 19 3d a4 83 9e bd
       -0.1365619 0.05259757 0.037531428 -0.07739952
0000a0 3a 4e 1d 3e 4a 6f 33 be be b7 82 3d c5 c3 92 bd
       0.15361872 -0.17522922 0.06382702 -0.07166246
0000b0 9e d0 a2 be 58 34 98 bd bc 9e 20 bc 56 c0 56 bd
       -0.31799787 -0.07431859 -0.00980347 -0.05242952
0000c0 c0 03 96 3d d9 e4 95 3d 42 b6 77 3d 38 6f 42 3e
       0.07324934 0.0731904 0.06047655 0.18987739
0000d0 d1 eb af be be 75 dc 3e bb a8 d8 3d c0 bc f5 bd
       -0.343596 0.4305858 0.10579058 -0.11998892
0000e0 7b 2e 5a bc bc 03 12 be b7 e5 6b 3e 29 34 aa 3d
       -0.013316746 -0.14259237 0.23036848 0.0831073
0000f0 73 88 ba 3d 19 f9 89 be 32 5d 4d 3e 45 d2 91 be
       0.09108057 -0.2694786 0.20055082 -0.28480735
